iris_classification.tflite (tflite, 2020 bytes, 4 tensors)

sequential/dense_1/BiasAdd/ReadVariableOp f4 [3]
0.28532416 -0.02042144 -0.18407299
00000000: 0216 923e dd4a a7bc a17d 3cbe

sequential/dense/BiasAdd/ReadVariableOp f4 [10]
0.16910966 -0.14031605 -0.11002896 -0.23933783 0.0 0.0 -0.0766815 0.22126767
0.12423975 -0.16415606
00000000: 152b 2d3e 03af 0fbe dd56 e1bd fa14 75be
00000010: 0000 0000 0000 0000 310b 9dbd fe93 623e
00000020: 6971 fe3d 8718 28be

sequential/dense/MatMul f4 [10, 4]
0.4496883 0.1888878 -0.56709135 0.20379174 -0.14191762 0.32887 -0.3798165 0.041019514
-0.41818714 0.3291092 0.27006146 0.5182116 0.25977257 0.023411542 -0.7503731 0.22853832
-0.6301131 -0.2287201 0.083289504 0.1380161 -0.20050007 -0.5073496 0.19245857 -0.18907428
-0.26372445 0.12789302 0.49996296 1.0397822 0.25049493 -0.12121722 0.5742576 -0.013564518
0.61042756 0.17227109 -0.30355728 0.22076729 0.449124 0.30928734 0.5513511 0.4082049
00000000: 8b3d e63e ce6b 413e e62c 11bf c8ae 503e
00000010: da52 11be a661 a83e 4f77 c2be 1404 283d
00000020: a01c d6be 0081 a83e 7f45 8a3e 84a9 043f
00000030: e900 853e 90c9 bf3c 7418 40bf f305 6a3e
00000040: 184f 21bf 9a35 6abe b093 aa3d 1854 0d3e
00000050: e44f 4dbe aae1 01bf dc13 453e b09c 41be
00000060: e406 87be 63f6 023e 25fb ff3e 9517 853f
00000070: df40 803e bc40 f8bd 8c02 133f b63d 5ebc
00000080: fb44 1c3f d567 303e dc6b 9bbe d210 623e
00000090: 95f3 e53e e95a 9e3e 5825 0d3f 3c00 d13e

sequential/dense_1/MatMul f4 [3, 10]
-0.011194578 -0.55200815 -0.043124847 -0.44997847 -0.33234635 0.20748144 -1.3620266 0.626485
-0.34926298 -0.4229417 -0.6471773 0.48557478 -0.57774895 -0.19834898 0.589483 -0.43044627
-0.07806725 0.5014179 -0.08995363 -0.50961053 -0.5058913 0.52388793 0.5777693 0.2813878
-0.116413295 0.27114516 0.65088063 -0.65116787 -0.87358147 0.24616422
00000000: 7769 37bc 6850 0dbf aea3 30bd 9463 e6be
00000010: 4d29 aabe 0476 543e e356 aebf 5261 203f
00000020: 99d2 b2be d18b d8be 69ad 25bf 429d f83e
00000030: 5be7 13bf ff1b 4bbe 5ce8 163f 7463 dcbe
00000040: b9e1 9fbd ec5c 003f 9c39 b8bd d675 02bf
00000050: 1882 01bf 851d 063f b0e8 133f 1012 903e
00000060: 186a eebd 8ad3 8a3e 1da0 263f f0b2 26bf
00000070: 09a3 5fbf 7912 7c3e
